src/autoencoder_random_data.pth (torch, 86248 bytes, 12 tensors)

encoder_rnn.weight_ih_l0 f4 [256, 3]
0	0x3c1bf440	0.009518683
1	0x3d9a3036	0.07528727
2	0xbd13f5c0	-0.036123037
3	0x3df9c022	0.121948496
4	0x3ac4cb80	0.0015014261
5	0xbcffda98	-0.031232163
6	0xbd26d4ec	-0.040730402
7	0xbdccc74c	-0.0999895
8	0x3c40ae60	0.011760324
9	0xbd62e4e8	-0.055394083
10	0xbd9ace7a	-0.075589135
11	0xbc45d5b0	-0.012074873
12	0xbd771584	-0.060323253
13	0xbd6b9fe0	-0.057525516
14	0x3d06296c	0.032754347
15	0xbd2225a0	-0.039586663
16	0x3d9b4fb6	0.07583563
17	0xbd97a52e	-0.074045524
18	0xbded3340	-0.11582041
19	0xbd892a20	-0.06697488
20	0xbda40de2	-0.080104604
21	0xbda44f40	-0.08022928
22	0x3d136b20	0.035990834
23	0xbc528030	-0.012847945
24	0x3dcee4e0	0.10102248
25	0xbda7e994	-0.08198848
26	0xbdf3a33e	-0.1189637
27	0xbdc70b72	-0.0971898
28	0x3de4cbd4	0.1117169
29	0xbda642c8	-0.08118206
30	0x3da4f0a8	0.08053714
31	0xbd183390	-0.03715855
32	0x3b722fc0	0.003695473
33	0x3db8ae44	0.090176135
34	0xbd79250c	-0.060826346
35	0xbc40cf00	-0.011768103
36	0xbb20a880	-0.0024514496
37	0xbdcb879e	-0.09937976
38	0xbdf2ae50	-0.11849654
39	0xbc4a1410	-0.012333885
40	0xbd189db0	-0.037259758
41	0xba46fb00	-0.00075905025
42	0xbda40c5e	-0.08010171
43	0x3df2ef0a	0.11861999
44	0xbdfaece8	-0.122522175
45	0x3d01c61c	0.031683072
46	0x3d27b47c	0.040943608
47	0x3d3e9088	0.046524554
48	0xbd10acec	-0.03532116
49	0x3d90800e	0.070556745
50	0xbc962940	-0.018330216
51	0xbd130dc8	-0.035901815
52	0x3d0cd8d4	0.03438647
53	0xbd10d36c	-0.035357878
54	0x3c599b50	0.013281658
55	0xbd540a2c	-0.051767513
56	0xbd8202ca	-0.06348188
57	0xbcdb8810	-0.026798278
58	0xbd56af5c	-0.05241333
59	0xbdbf60e4	-0.09344652
60	0xbdc6be3c	-0.09704253
61	0xbdbef540	-0.093241215
62	0xbb7850c0	-0.0037889928
63	0x3dddd638	0.108318746
64	0x3dc6833e	0.09693001
65	0x3d8bd358	0.0682742
66	0x3c1d0640	0.00958401
67	0x3d58c300	0.05292034
68	0xbde7e1c8	-0.11322361
69	0x3d8d0a70	0.068867564
70	0xbd45edfc	-0.048322663
71	0x3c063d70	0.008193359
72	0xbcfcf388	-0.030877843
73	0xbd98fe5e	-0.07470392
74	0x3db95800	0.09049988
75	0x3d909094	0.07058826
76	0xbdc854f8	-0.097818315
77	0x3d96e3c8	0.073676646
78	0x3d32be84	0.04363872
79	0xbdc83b90	-0.09776986
80	0x3dfd945c	0.12381813
81	0x3defcfee	0.11709581
82	0xbdf57ece	-0.11987077
83	0x3c8b02d8	0.01696913
84	0x3dad0082	0.084473625
85	0x3d9cb6b6	0.07652037
86	0x3d42f224	0.047594205
87	0xbb59eec0	-0.0033253878
88	0xbde64dea	-0.1124533
89	0xbca4a250	-0.020096928
90	0x3cf9f770	0.030513495
91	0xbd9fbd04	-0.07799724
92	0x3d6a5778	0.057212323
93	0x3daaa81c	0.083328456
94	0x3dcf5e88	0.10125452
95	0xbd01e8dc	-0.031716213
96	0xbd410a30	-0.047128856
97	0xbda5cdfe	-0.080959305
98	0xbd2a3c34	-0.04156132
99	0x3c8b5a30	0.017010778
100	0xbca36238	-0.019944295
101	0xbd914fc6	-0.07095294
102	0xbde4f3fc	-0.11179349
103	0x37842000	1.5750527e-05
104	0x3dc73b76	0.09728138
105	0x3d177508	0.036976844
106	0xbdec1c08	-0.11528784
107	0x3d1b7144	0.037949815
108	0xbd93ee6c	-0.0722321
109	0xbd352e40	-0.04423356
110	0x3cd4d1e8	0.025978997
111	0x3db09eb2	0.08624019
112	0x3dae6664	0.08515623
113	0xbdc63a38	-0.09679073
114	0xbdbaae34	-0.09115258
115	0xbd747510	-0.059681952
116	0x3d866fb8	0.065642774
117	0x3d6b9c24	0.057521954
118	0x3de9d28a	0.1141711
119	0x3dd82460	0.10553813
120	0x3cd5a630	0.026080221
121	0xbdb29cc8	-0.0872131
122	0xbce74e90	-0.028235704
123	0xbdf9851c	-0.12183592
124	0x3cdf2f38	0.027244195
125	0xbd269b40	-0.0406754
126	0x3c5541a0	0.0130161345
127	0xbd2592c4	-0.04042317
128	0x3d0c441c	0.03424464
129	0x3c9f8c50	0.019476086
130	0xbc4734b0	-0.012158558
131	0xbcbaf9b8	-0.022824153
132	0xbd98a9a8	-0.07454234
133	0x3d77edb0	0.06052941
134	0xbdb333ca	-0.08750112
135	0xbcf64788	-0.030063406
136	0xbde8e648	-0.11372048
137	0x3d14ae00	0.03629875
138	0x3ce5d9c0	0.028057933
139	0xbce8e8e0	-0.028431356
140	0x3d2c5354	0.042071655
141	0x3ce33c80	0.02773881
142	0xbdd0f606	-0.10203175
143	0x3d7db4f4	0.06194015
144	0x3dc822f6	0.09772293
145	0x3d81d450	0.063393235
146	0x3d04bb6c	0.032405302
147	0xbdc87f2c	-0.09789881
148	0xbc569cd0	-0.01309891
149	0x3d320c50	0.043468773
150	0xbdaf779c	-0.085677356
151	0xbd70c64c	-0.05878286
152	0x3caece68	0.021338657
153	0xbcfedba0	-0.031110585
154	0xbdb85ca0	-0.09002042
155	0x3cce3a00	0.02517414
156	0x3dc13d12	0.09435476
157	0xbcce68d8	-0.025196478
158	0x3d9270ec	0.071504444
159	0xbdf3ca7c	-0.11903855
160	0x3b703f80	0.0036658943
161	0xbdf83db6	-0.121211454
162	0x3de166a4	0.11005905
163	0xbdbc6166	-0.09198265
164	0x3d570ef8	0.05250451
165	0xbddb3104	-0.10702708
166	0x3cab8400	0.020936966
167	0xbd4079a0	-0.04699099
168	0xbdd7ad3a	-0.10531087
169	0x3df89c36	0.1213917
170	0x3bf53600	0.007483244
171	0x3d009824	0.031395093
172	0xbcaf6018	-0.021408126
173	0x3d884772	0.06654252
174	0xbc2c3250	-0.010510042
175	0xbdb7189e	-0.08940242
176	0xbd0a41bc	-0.033754095
177	0x3dffcdce	0.12490426
178	0x3bde78a0	0.006789282
179	0xbdbe9894	-0.09306446
180	0x3cd0d2d0	0.025491148
181	0xbdd54be2	-0.10414864
182	0x3d64f994	0.05590208
183	0x3dd00d84	0.10158828
184	0x3ba7a120	0.005115643
185	0xbc615a30	-0.0137544125
186	0x3d95ca2e	0.07313953
187	0xbd053420	-0.032520413
188	0xbdf46d92	-0.119349614
189	0x3aead000	0.0017914772
190	0xbdf790a4	-0.12088135
191	0x3d8e27a2	0.06941153
192	0x3de680e8	0.11255056
193	0x3dd463c8	0.10370594
194	0x3d64fd78	0.05590579
195	0x3dbbafa8	0.09164363
196	0x3dc5179c	0.09623644
197	0xbde50260	-0.111820936
198	0x3d85f600	0.065410614
199	0x3caf9ce0	0.021437109
200	0x3de71706	0.11283688
201	0xbdb9dd30	-0.09075391
202	0xbcc92578	-0.024554
203	0x3d79ec20	0.061016202
204	0xbc514900	-0.012773752
205	0xbb0e0d80	-0.0021675527
206	0xbc80d970	-0.015728682
207	0xbd2ab148	-0.041672975
208	0xbbfbfda0	-0.0076901466
209	0x3ce1a140	0.02754271
210	0x3dded7ba	0.1088099
211	0xbdcb7572	-0.0993451
212	0xbde3328e	-0.11093627
213	0x3d55f9b0	0.052240074
214	0x3b1272c0	0.0022346228
215	0x3d84873e	0.06471108
216	0x3d057df8	0.032590836
217	0xbd1617ec	-0.036643907
218	0xbdf1ed38	-0.11812824
219	0xbdba8996	-0.09108274
220	0x3ddaf3c2	0.10691024
221	0x3c435980	0.011923194
222	0xbde0bf38	-0.10973972
223	0xbc1b3670	-0.009473428
224	0xbce5a168	-0.028031066
225	0x3bd8fea0	0.0066221505
226	0xbb462b40	-0.0030238181
227	0xbbf956a0	-0.0076092035
228	0x3b6d35c0	0.0036195368
229	0x3cc0a060	0.023513973
230	0x3dff44a0	0.12464261
231	0xbd073b9c	-0.033015832
232	0x3dc783a8	0.09741908
233	0x3d4a8738	0.04944536
234	0xbddc96be	-0.10770939
235	0x3d92d912	0.07170309
236	0x3d43c54c	0.04779558
237	0xbdc208dc	-0.09474346
238	0xbcd394d8	-0.02582781
239	0xbd1bc7bc	-0.03803228
240	0xba8bd580	-0.0010668486
241	0x3dadf91a	0.08494778
242	0xbc3eadb0	-0.01163809
243	0x3c24d5d0	0.0100607425
244	0xbd9fa67c	-0.07795426
245	0xbc5ca0f0	-0.013466105
246	0xbdaa82b8	-0.08325714
247	0x3c368070	0.01113902
248	0xbdb5350a	-0.08848007
249	0xbd7b1a08	-0.061304122
250	0xbde4b888	-0.11168009
251	0xbdbca384	-0.09210876
252	0xbddd00a2	-0.10791136
253	0xbcba7510	-0.022760898
254	0x3de36dd2	0.11104931
255	0x3d37a034	0.044830516

encoder_rnn.weight_hh_l0 f4 [256, 64]
0	0xbba34a40	-0.0049832165
1	0x3d038b10	0.032115042
2	0x3dc63e80	0.0967989
3	0x3d7a9360	0.061175704
4	0xbc303900	-0.010755777
5	0xbd641564	-0.055684462
6	0xbc7296d0	-0.014806464
7	0xbc90a628	-0.017657354
8	0x3df5bd9a	0.11999054
9	0x3c304210	0.010757938
10	0xbb405480	-0.002934724
11	0x3c0189a0	0.0079063475
12	0xbdcf9f8e	-0.101378545
13	0xbd4f234c	-0.05057077
14	0x3cad9658	0.021189854
15	0xbd6060e4	-0.054779902
16	0xbdb6cbe4	-0.08925608
17	0x3d2de2b8	0.042452544
18	0xbc8d4070	-0.01724264
19	0x3de51cde	0.111871466
20	0x3dd03db0	0.10168016
21	0x3de57258	0.1120345
22	0xbd31c8fc	-0.043404564
23	0x3cbba480	0.022905588
24	0xbd025214	-0.031816557
25	0x3c9072d8	0.017632887
26	0x3d90e8be	0.07075642
27	0x3d2a2f5c	0.04154907
28	0xbdb2e152	-0.08734383
29	0xbdd56ffa	-0.104217485
30	0xbd8b278c	-0.06794652
31	0x3c3cdd20	0.01152733
32	0xbde9a156	-0.114077255
33	0x3d2394dc	0.039936885
34	0x3d13ba50	0.036066353
35	0xbc93af20	-0.018027842
36	0xbd5381c0	-0.05163741
37	0xbda5ffe8	-0.08105451
38	0x3c9838e8	0.018581823
39	0xbdb23212	-0.087009564
40	0x3da54440	0.08069658
41	0x3db14f8a	0.08657749
42	0xbdfabe64	-0.122433454
43	0xbd004938	-0.031319827
44	0x3c1bd340	0.009510815
45	0x3de9a41e	0.11408256
46	0xbd1d0a68	-0.038340002
47	0x3d99aa46	0.0750318
48	0x3dc2dc56	0.09514682
49	0x3cf1ee00	0.029532433
50	0x3c5df760	0.013547748
51	0x3dc0afa0	0.09408498
52	0x3dbec308	0.09314543
53	0xbda3d920	-0.08000398
54	0xbdc6d0d0	-0.097077966
55	0x3db4735a	0.08811064
56	0xbdde852a	-0.10865243
57	0xbd461828	-0.04836288
58	0xbc48a8c0	-0.012247264
59	0xb9967000	-0.00028693676
60	0xbdf27212	-0.118381634
61	0xbccab690	-0.024745256
62	0xbcfda0e0	-0.0309605
63	0xbdae1d0e	-0.085016355
64	0x3dcba01c	0.09942648
65	0x3cb04358	0.021516487
66	0xbd382ae0	-0.044962764
67	0x3dde13ee	0.10843645
68	0x3b894c20	0.004189983
69	0x3c9fdee0	0.019515455
70	0xbd9e4662	-0.07728268
71	0xb85c9000	-5.2586198e-05
72	0xbd46df70	-0.04855293
73	0x3c46ea20	0.012140781
74	0xbdb0a788	-0.08625704
75	0xbd15b8ec	-0.03655331
76	0xbbbf7a80	-0.0058434606
77	0xbd19f530	-0.037587345
78	0xbd637730	-0.055533588
79	0xbdd1ed5e	-0.10250352
80	0xbc80d6c8	-0.015727416
81	0xbdae01dc	-0.084964484
82	0xbdc0c1cc	-0.09411964
83	0xbcea6980	-0.02861476
84	0x3ddcc142	0.107790485
85	0x3bb58a20	0.0055401474
86	0x3cbbdad0	0.022931486
87	0xbdcc9d72	-0.09990968
88	0xbdec1f8a	-0.11529453
89	0xbd9f286c	-0.07771382
90	0xbdb90806	-0.090347335
91	0x3d602efc	0.054732308
92	0x3d8cc522	0.068735376
93	0xbd1ff48c	-0.039051577
94	0x3d502a14	0.05082138
95	0xbddad672	-0.106854334
96	0x3b0cdd80	0.002149433
97	0x3d7f2c6c	0.062298223
98	0x3b37cb40	0.002804473
99	0x3dcee428	0.10102111
100	0xbcb08808	-0.02154924
101	0x3dfcc892	0.12342943
102	0x3d0c6690	0.0342775
103	0xbdd24974	-0.10267916
104	0x3d9a5bb4	0.07537022
105	0x3df4583a	0.119308904
106	0xbd1b8618	-0.03796968
107	0xbdb2454a	-0.08704622
108	0x3dbd568a	0.09245022
109	0xbd019078	-0.031631917
110	0xbd04538c	-0.03230624
111	0xbda69fa0	-0.08135915
112	0x3d5f9af4	0.054591134
113	0xbdb5e644	-0.0888181
114	0xbd856c40	-0.06514788
115	0x3d818fca	0.06326254
116	0xbde375ec	-0.11106476
117	0xbd205698	-0.039145082
118	0xbdc83340	-0.097754
119	0x3ce302b8	0.027711257
120	0x3d75e470	0.060032308
121	0xbdf10800	-0.11769104
122	0xbdf0ba6c	-0.11754307
123	0x3df81f90	0.12115395
124	0x3b257e80	0.0025252402
125	0x3d93a840	0.072098255
126	0x3d8d1548	0.06888825
127	0xbd4fe570	-0.050755918
128	0xbdde335a	-0.10849638
129	0x3c9eac78	0.019369349
130	0xbd5a3a3c	-0.053278193
131	0x3cd03fc8	0.025421038
132	0xbdde03c6	-0.108405635
133	0xbd116164	-0.03549327
134	0x3db51238	0.088413656
135	0x3ca4a258	0.020096943
136	0x3c12b4b0	0.008954212
137	0xbab40800	-0.0013735294
138	0xbd148fc8	-0.036269933
139	0xbd9ff29e	-0.078099474
140	0x3cb70758	0.022342369
141	0x3db042e4	0.086065084
142	0x3ba0d4c0	0.0049081743
143	0xbde3976a	-0.11112864
144	0xbd572934	-0.05252953
145	0x3dd99942	0.10624935
146	0xbd2d5fb4	-0.042327598
147	0xbdc47034	-0.095917135
148	0xbce736c0	-0.028224349
149	0xbd858454	-0.0651938
150	0xbcc69df0	-0.024245232
151	0xbd11e5ec	-0.03561966
152	0xbc41e0a0	-0.01183334
153	0x3dd133c0	0.10214949
154	0xbdb99466	-0.09061508
155	0xbd903368	-0.07041055
156	0x3d686de4	0.056745425
157	0x3d44e54c	0.048070237
158	0xbd6fab44	-0.05851294
159	0xbd8b66d8	-0.06806725
160	0x3d4e817c	0.050416455
161	0x3d7f6f08	0.062361747
162	0xbd93241a	-0.0718462
163	0x3dc93402	0.09824373
164	0xbde8946a	-0.11356433
165	0xbd7ac9f4	-0.061227754
166	0xbd7b71b8	-0.061387748
167	0xbdc48ea6	-0.095975205
168	0x3d6d5c88	0.057949573
169	0x3d191b94	0.037379816
170	0x3d14d090	0.036331713
171	0xbc90dce0	-0.017683446
172	0xbdbdac60	-0.092613935
173	0xbd015500	-0.031575203
174	0x3bc50560	0.0060126036
175	0x3d9cb3c0	0.07651472
176	0xbdeacb0e	-0.11464511
177	0xbd27d5cc	-0.040975377
178	0x3d8c24ae	0.068429336
179	0x3cab0550	0.020876557
180	0x3c54a430	0.0129785985
181	0xbd850e80	-0.06496906
182	0xbc96ba60	-0.018399417
183	0xbd1a961c	-0.03774081
184	0xbdd9b9fe	-0.10631178
185	0xbdb86e36	-0.09005396
186	0x3db3cc42	0.087791935
187	0x3d9ce790	0.076613545
188	0x3d57f6e4	0.052725688
189	0x3cdb05e0	0.0267362
190	0x3d898286	0.067143485
191	0x3d4d9630	0.050192058
192	0xbd9d9796	-0.07694928
193	0x3da3e114	0.080019146
194	0xbc39fc90	-0.0113517195
195	0x3c94cea0	0.018164933
196	0xbde7ae3e	-0.11312531
197	0xbc9278b8	-0.017879829
198	0xbd206358	-0.03915724
199	0x3cbf92c8	0.02338542
200	0xbdc91140	-0.09817743
201	0xbde042ae	-0.10950218
202	0x3de47c0e	0.11156474
203	0x3df58de6	0.119899556
204	0x3901e400	0.00012387335
205	0xbdbea4da	-0.09308787
206	0xbd2067ac	-0.03916137
207	0x3d433400	0.047657013
208	0xbddd4df4	-0.10805884
209	0x3d51b6d4	0.05119975
210	0x3b3ed9c0	0.0029121488
211	0xbcf205d0	-0.029543787
212	0x3de76b70	0.11299789
213	0x3df7f5ea	0.12107451
214	0xbda3321a	-0.079685405
215	0xbcd2e400	-0.025743484
216	0xbda79324	-0.08182362
217	0x3c385000	0.011249542
218	0xbd7bce84	-0.061476246
219	0xbd9d0326	-0.07666616
220	0xbd9f16ce	-0.077680215
221	0x3d8133b2	0.06308688
222	0x3da449ac	0.08021864
223	0x3df2ec00	0.1186142
224	0xbda38b6c	-0.07985577
225	0x3c3161d0	0.010826543
226	0x3de54652	0.11195053
227	0xbd8e77fe	-0.069564804
228	0xbd3dbcb0	-0.046322525
229	0x3d4626cc	0.048376843
230	0xbd7611b0	-0.060075462
231	0x3dc90892	0.09816088
232	0xbda4cbe0	-0.080466986
233	0xbdc9f640	-0.098614216
234	0xbc64dd70	-0.01396881
235	0x3deb46d2	0.11488117
236	0x3dcc5472	0.09977044
237	0xbcbba268	-0.02290459
238	0xbbd19920	-0.0063964278
239	0x3dd342ac	0.10315451
240	0x3d9baf80	0.07601833
241	0x3dd1df38	0.10247654
242	0xbdc4a9a8	-0.09602672
243	0xbc86b928	-0.016445711
244	0x3d927f3c	0.07153174
245	0x3d718318	0.05896291
246	0x3dc461aa	0.095889404
247	0xbdf4ec1e	-0.11959098
248	0x3bf6a9a0	0.007527545
249	0x3d8bb4b8	0.06821579
250	0xbd567660	-0.052358985
251	0x3de2b0b6	0.11068861
252	0xbdccae04	-0.09994128
253	0xbd10535c	-0.035235748
254	0x3dbb555e	0.09147142
255	0xbdf02b84	-0.1172705

encoder_rnn.bias_ih_l0 f4 [256]
0	0x3d82c004	0.0638428
1	0x3dec44a8	0.11536533
2	0x3dc4447e	0.09583376
3	0xbdf6b084	-0.120453864
4	0xbdc8121c	-0.09769079
5	0xbcc91da8	-0.024550274
6	0xbce0a240	-0.027421117
7	0xbdef28be	-0.11677693
8	0xbdb39cec	-0.08770165
9	0xbd64fcac	-0.05590503
10	0xbc9ddd20	-0.01927048
11	0x3da2cf60	0.0794971
12	0xbd3aeb70	-0.045634687
13	0xbdb6d5fe	-0.089275345
14	0x3ce77088	0.028251901
15	0xbc512240	-0.0127645135
16	0xbdb10dfe	-0.08645247
17	0xba809f00	-0.0009813011
18	0xbdfe6d04	-0.12423137
19	0xbd83648e	-0.06415664
20	0xbd400888	-0.046883136
21	0x3ce71a70	0.028210849
22	0xbb523900	-0.0032077432
23	0xbda5851e	-0.08082031
24	0x3d2b7cc0	0.041867018
25	0x3dc50794	0.09620586
26	0xba603c00	-0.00085538626
27	0xbc1cdd00	-0.009574175
28	0x3db0cbe8	0.08632642
29	0xbd2788ec	-0.040902063
30	0x3cd78910	0.026310474
31	0x3c942648	0.01808466
32	0x3dcd9720	0.100385904
33	0xbd790bc4	-0.060802236
34	0xbd83b348	-0.064306796
35	0x3df167cc	0.11787376
36	0xbd42f620	-0.047598004
37	0x3dbf3edc	0.09338161
38	0x3b6e1740	0.0036329776
39	0xbd77263c	-0.060339198
40	0x3c406ed0	0.01174517
41	0x3dcfe9aa	0.1015199
42	0x3dc0473e	0.09388588
43	0x3d784494	0.060612276
44	0x3d8c7508	0.068582594
45	0xba9d8100	-0.0012016594
46	0x3d862a7e	0.065510735
47	0xbd7d9b78	-0.061915845
48	0x3d6367c0	0.055518866
49	0x3d129f7c	0.035796627
50	0xbd84b028	-0.06478912
51	0xbc5db4c0	-0.013531864
52	0x3dd0b76a	0.101912335
53	0x3d9f28ca	0.07771452
54	0x3b71d2c0	0.0036899298
55	0x3d0ad020	0.03388989
56	0x3c6d9ff0	0.014503464
57	0xbcab43b8	-0.020906314
58	0xbdcca458	-0.099922836
59	0x3da58a6a	0.08083041
60	0x3dd4bc2a	0.10387452
61	0xbd8a1756	-0.06742732
62	0xbcb1c2d8	-0.021699354
63	0xbdc15908	-0.094408095
64	0xbde216b2	-0.11039485
65	0x3d37e54c	0.04489641
66	0x3db557f6	0.08854668
67	0x3c664610	0.01405479
68	0xbbf035c0	-0.0073306262
69	0x3db6f566	0.08933525
70	0xbd5ad41c	-0.05342494
71	0x3dbfb6f0	0.093610644
72	0x3df48914	0.11940208
73	0xbd4053f8	-0.04695508
74	0x3aac6600	0.0013152957
75	0x3c0111a0	0.007877737
76	0xbd56fb5c	-0.05248581
77	0x3daf9866	0.085739896
78	0xbda4cb5e	-0.08046602
79	0xbd788580	-0.06067419
80	0xbdebd118	-0.11514491
81	0x3da021d6	0.07818954
82	0x3d3b8264	0.045778647
83	0x3dd44ec4	0.10366586
84	0x3da1d836	0.07902567
85	0x3d89a10e	0.06720172
86	0x3d12fae0	0.035883784
87	0xbc2cd4f0	-0.010548815
88	0xbc6a69c0	-0.014307439
89	0xbc7e77d0	-0.015531495
90	0x3d57bd54	0.05267079
91	0x3d1a7f74	0.037719205
92	0x3d9ce98c	0.07661733
93	0x3d28dde8	0.04122725
94	0xbd105a08	-0.03524211
95	0xbd9c5060	-0.07632518
96	0xbde1fab6	-0.110341474
97	0xbdd3c35e	-0.10339998
98	0x3d9aaea8	0.07552844
99	0xbb7712c0	-0.0037700385
100	0xbd2115e0	-0.039327502
101	0x3d86fece	0.06591569
102	0xbdcca726	-0.099928185
103	0xbddc77ac	-0.10765013
104	0x3cd4f820	0.025997221
105	0xbdc5d19c	-0.096591204
106	0x3d96c5ae	0.07361923
107	0x3d99c38c	0.07508001
108	0xbda6abea	-0.08138259
109	0x3caf62d0	0.021409422
110	0x3d26f6e4	0.040762797
111	0x3ccad198	0.024758145
112	0xbbef9be0	-0.007312283
113	0x3dd77fdc	0.10522434
114	0xb9414000	-0.00018429756
115	0xbc9d6908	-0.019215122
116	0x3d83d6d2	0.06437458
117	0x3de6d1da	0.11270495
118	0x3df9467c	0.12171647
119	0x3d635598	0.05550155
120	0xbdd666e8	-0.104688466
121	0xbdb1faa8	-0.08690387
122	0x3d5e4018	0.054260343
123	0xbd96b24e	-0.07358228
124	0xbdf57cd4	-0.119867
125	0xbdb77fb2	-0.08959903
126	0xbd9baf32	-0.07601775
127	0xbd3406d0	-0.04395181
128	0x3d85ea78	0.06538862
129	0x3de82a3c	0.113361806
130	0xbd958c74	-0.0730218
131	0x3da4f2fa	0.080541566
132	0xbd95ff38	-0.0732407
133	0xbd5f51d8	-0.05452141
134	0xbc883250	-0.016625553
135	0x3d958524	0.07300785
136	0xbd8fe754	-0.07026544
137	0xbd045aac	-0.032313034
138	0x3d18aef4	0.037276223
139	0xbdaeeb28	-0.08540946
140	0xbcdbb5d8	-0.026820108
141	0xbd0af61c	-0.033926114
142	0x3d1d471c	0.038397893
143	0xbd4c3088	-0.04985097
144	0xbdc1a518	-0.09455317
145	0xbd706720	-0.058692098
146	0x3db15206	0.08658223
147	0x3d0cb164	0.03434886
148	0x3dc141fe	0.09436415
149	0xbdd4dbd8	-0.10393494
150	0xbdc0d852	-0.0941626
151	0x3dda46e2	0.10658051
152	0x3cb2b3d0	0.021814257
153	0xbdbdac60	-0.092613935
154	0xbcf9f7d8	-0.030513689
155	0xbdc33bd4	-0.09532896
156	0x3be45f80	0.0069693923
157	0x3d0ee91c	0.03489028
158	0x3d049db4	0.03237696
159	0x3b4e6780	0.0031494796
160	0x3d32e688	0.043676883
161	0x3c5b9820	0.013402969
162	0x39dbc200	0.00041915476
163	0xbd6130e8	-0.05497828
164	0xbd0ff7f8	-0.03514859
165	0xbc24dfe0	-0.010063142
166	0xbdca7896	-0.09886281
167	0xbde50eb8	-0.11184448
168	0x3ddfbaf2	0.10924329
169	0x3d583cb0	0.05279225
170	0xbd358718	-0.04431829
171	0xbd8ff792	-0.07029642
172	0xbdacab82	-0.0843115
173	0x3d0b88c8	0.03406599
174	0x3c7e4570	0.015519485
175	0xbdcfc32e	-0.101446494
176	0x3d9828de	0.0742967
177	0xbd8f69f0	-0.07002628
178	0xbdd1fb06	-0.10252957
179	0xbca24c78	-0.019811854
180	0x3dd9c492	0.10633196
181	0xbd1e682c	-0.038673565
182	0x3dc06626	0.09394483
183	0xbd6471d0	-0.055772603
184	0xbcc5b4b0	-0.02413401
185	0x3cf00dc0	0.029303432
186	0x3df7a204	0.12091449
187	0xbd3c3b64	-0.045955077
188	0x3d6e8cd4	0.058239773
189	0x3d84fa34	0.06493035
190	0x3d0125d8	0.03153023
191	0x3d55765c	0.05211483
192	0xbc7913e0	-0.0152024925
193	0x3de6dba6	0.11272363
194	0xbdd11540	-0.10209131
195	0xbde85b44	-0.113455325
196	0x3ae8e880	0.0017769486
197	0xbd0c2230	-0.03421229
198	0xbc9e4750	-0.019321114
199	0x3c413a10	0.011793628
200	0xbbb83cc0	-0.0056224763
201	0xbdf3c2f0	-0.11902416
202	0xbde100d0	-0.10986483
203	0xbd6ba0b0	-0.05752629
204	0x3cce4710	0.02518037
205	0x3d8b3dc4	0.0679889
206	0x3c5debc0	0.013544977
207	0xbd3533cc	-0.04423885
208	0xbdab16e8	-0.083539784
209	0x3dc9a63a	0.09846158
210	0xbdd7c00a	-0.105346754
211	0x3d23a2dc	0.039950237
212	0xbcad2830	-0.021137327
213	0x3c88d010	0.016700774
214	0xbd94bf6e	-0.07263075
215	0xbb14e680	-0.0022720397
216	0x3ce51aa8	0.027966812
217	0xbdd441be	-0.10364102
218	0xbc2abc50	-0.010420874
219	0x3ddcf288	0.10788447
220	0xb949a400	-0.00019229949
221	0xbdfaf5fe	-0.122539505
222	0x3cb17150	0.021660477
223	0xbd52f0b8	-0.0514991
224	0xbdf6808e	-0.120362386
225	0xbdff971a	-0.12479992
226	0xbd944aba	-0.072408155
227	0xbd13cf48	-0.03608635
228	0xbcee4e90	-0.029090196
229	0x3d538b1c	0.051646337
230	0x3df740b6	0.120728895
231	0xbded3b86	-0.11583619
232	0xbd1d80f0	-0.038453043
233	0xbd87ecd6	-0.0663697
234	0x3c7802e0	0.015137404
235	0xbd90fd76	-0.07079594
236	0xbdef72b4	-0.116918
237	0xbc24bec0	-0.010055244
238	0xbd3d7020	-0.04624951
239	0x3d81f6e0	0.06345916
240	0x3dac47c4	0.08412126
241	0x3ca6b198	0.020348355
242	0x3db2b7d8	0.08726472
243	0xbc9a2080	-0.018814325
244	0x3d86a55c	0.065745085
245	0xbd52c1a4	-0.0514542
246	0x3dfc04e6	0.12305622
247	0x3d908c24	0.0705798
248	0x3aa4c880	0.0012571961
249	0x3db54e16	0.08852784
250	0xbc56af60	-0.013103336
251	0xbdde26b0	-0.10847223
252	0x3c92f880	0.01794076
253	0x3daf774c	0.08567676
254	0xbdafc796	-0.0858299
255	0x3d986958	0.07441968

encoder_rnn.bias_hh_l0 f4 [256]
0	0xbc93d148	-0.018044129
1	0xbb98c2c0	-0.004661888
2	0x3d979f5e	0.07403444
3	0x3c180aa0	0.009279877
4	0x3dfea374	0.1243352
5	0x3d9afcf2	0.07567777
6	0xbd2f298c	-0.04276423
7	0xbdcca824	-0.09993008
8	0x3cfedb10	0.031110317
9	0x3db41e3c	0.08794829
10	0x3df27da0	0.11840367
11	0xbc6e6ed0	-0.014552787
12	0x3d454e4c	0.048170373
13	0xbdc5d6fa	-0.09660144
14	0x3d811d7c	0.06304452
15	0x3cc68fe8	0.024238542
16	0xbdb5e4fc	-0.08881566
17	0xbdeab686	-0.11460595
18	0xbbafb080	-0.0053616166
19	0xbdfc4c08	-0.12319189
20	0xbdbf5fe0	-0.093444586
21	0x3df5aa92	0.11995424
22	0xbd77344c	-0.06035261
23	0xb9fe5200	-0.0004850775
24	0xbdbeedd2	-0.093227044
25	0xbdc3f03e	-0.09567307
26	0x3d80c822	0.06288172
27	0xbb693900	-0.0035586953
28	0x3d732754	0.059363678
29	0x3df9ebd2	0.12203182
30	0xbad40500	-0.0016175807
31	0x3b638880	0.0034718812
32	0xbd3edd40	-0.04659772
33	0xbd922ee0	-0.07137847
34	0xbd8a4888	-0.067521155
35	0xbdebf50e	-0.1152135
36	0x3d8afbd0	0.06786311
37	0xbd8941f2	-0.06702031
38	0xbda68ae2	-0.081319585
39	0x3cbfd6b0	0.0234178
40	0xbd821d76	-0.063532755
41	0xbd1d88bc	-0.03846048
42	0xbd249a90	-0.040186465
43	0xbd472808	-0.04862216
44	0x3de13dbe	0.109981045
45	0xbd4be7b0	-0.0497815
46	0x3d241d18	0.04006681
47	0xbdc0a470	-0.09406364
48	0xbd539a24	-0.05166067
49	0xbd5101b0	-0.051027
50	0x3db1f08e	0.0868846
51	0xbd8e839c	-0.06958696
52	0xbdff927c	-0.124791116
53	0x3d9e5ed8	0.07732934
54	0x3dfb6fa2	0.12277152
55	0x3da4b96c	0.08043179
56	0x3ddba068	0.107239544
57	0x3d0f86f4	0.03504081
58	0x3d73669c	0.059424028
59	0xbc188660	-0.009309381
60	0x3dd66b80	0.10469723
61	0x3c7b9330	0.015354916
62	0xbdd4b26e	-0.10385595
63	0xbd181e4c	-0.03713827
64	0x3d730034	0.059326366
65	0x3dce6faa	0.10079892
66	0xbb7fdd80	-0.0039041936
67	0x3d986c5a	0.074425414
68	0x3d8b54e4	0.06803301
69	0xbdcbf454	-0.09958711
70	0xbde9dece	-0.1141945
71	0x3dbf818a	0.093508795
72	0x3d055e18	0.032560438
73	0xbdf39926	-0.11894445
74	0x3d969314	0.07352272
75	0xbd8626e0	-0.065503836
76	0xbd19365c	-0.037405357
77	0xbde9450a	-0.11390121
78	0x3d94bb7a	0.07262321
79	0x3d17cd74	0.03706117
80	0x3db25ad2	0.08708729
81	0x3dcdb656	0.100445434
82	0x3deea364	0.11652258
83	0xbcf65c48	-0.0300733
84	0x3dfe747e	0.12424563
85	0x3d0f5c64	0.03500022
86	0xbdada268	-0.08478242
87	0xbd3682a8	-0.044558197
88	0xbc584200	-0.013199329
89	0xbdbca58a	-0.092112616
90	0xbd6091bc	-0.054826483
91	0x3dcba64e	0.099438295
92	0x3ddb52e2	0.10709168
93	0xbdd503a4	-0.10401085
94	0xbd8bd602	-0.06827928
95	0x3dd8ea7a	0.10591598
96	0xbde6a230	-0.112614036
97	0xbd6a02c0	-0.05713153
98	0x3c1ccc90	0.009570256
99	0x3dae0e30	0.084988
100	0x3dd525e2	0.10407616
101	0xbd1a7bb4	-0.03771563
102	0xbdc91fca	-0.098205164
103	0xbdf4e2fc	-0.11957356
104	0xbd75b160	-0.05998361
105	0x3df2f460	0.11863017
106	0xbdcb0bfa	-0.09914394
107	0x3d659f8c	0.05606036
108	0xbded58e0	-0.11589217
109	0x3de51dd6	0.111873314
110	0x3c1f6e50	0.00973089
111	0x3c49bfa0	0.012313753
112	0x3d9a1fc0	0.07525587
113	0x3cd7e4c0	0.026354194
114	0x3d913d64	0.070917875
115	0xbb9d16e0	-0.0047939867
116	0x3dfe8764	0.124281675
117	0xbde1d3ee	-0.110267505
118	0xbdee49a8	-0.116351426
119	0xbd8113d4	-0.0630261
120	0xbd76075c	-0.060065612
121	0x3df4d90e	0.119554624
122	0xbdbd22f8	-0.092351854
123	0x3d991fb2	0.074767485
124	0x3dc56bd8	0.0963971
125	0xbdade1f8	-0.08490366
126	0x3de75a66	0.11296539
127	0x3d4ae574	0.04953523
128	0x3db3ca54	0.087788254
129	0xbc74c410	-0.014939323
130	0x3d38be98	0.04510364
131	0x3db0f606	0.08640675
132	0xbca06398	-0.01957874
133	0xbc5b70d0	-0.013393596
134	0x3de13d42	0.10998012
135	0xbdce6090	-0.100770116
136	0x3b146840	0.0022645146
137	0xbdc442d4	-0.09583059
138	0x3da6fd32	0.08153762
139	0xbd5d9518	-0.054097265
140	0xbda67272	-0.081272975
141	0x3c7eb550	0.015546158
142	0x3dc1cb86	0.09462647
143	0x3d4885a4	0.048955575
144	0xbd657540	-0.05602002
145	0x3d5a8e6c	0.05335848
146	0x3dddfabe	0.10838841
147	0xbdd7fdaa	-0.105464295
148	0x3d171c2c	0.0368921
149	0x3d9646d2	0.07337727
150	0xbdd7055e	-0.104990706
151	0x3da4a3d4	0.0803906
152	0xbca18410	-0.019716293
153	0xbdae0266	-0.08496551
154	0x3d78c238	0.060732096
155	0xbd7d77c4	-0.061881796
156	0x3dbe8e28	0.09304458
157	0x3d305448	0.043049127
158	0xbc189bb0	-0.009314463
159	0x3d68e04c	0.05685453
160	0xbd229b10	-0.03969866
161	0x3dde253a	0.10846944
162	0xbdf821ca	-0.1211582
163	0x3d141278	0.036150426
164	0xbdd127e2	-0.10212685
165	0xbda9a472	-0.082833186
166	0xbcbf5c58	-0.023359463
167	0x3da87d06	0.08226971
168	0xbd608008	-0.0548096
169	0xbd5bf698	-0.053701967
170	0x3dea32da	0.114354804
171	0x3c830d00	0.01599741
172	0x3d225b98	0.03963813
173	0x3d3b24dc	0.04568945
174	0x3d9ee232	0.07757987
175	0xbddbbff2	-0.1072997
176	0xbda1dbf0	-0.07903278
177	0x3d77922c	0.060442135
178	0x3b370280	0.0027925074
179	0xbdf16038	-0.117859304
180	0xbdeb5a4c	-0.11491832
181	0x3d44c374	0.04803796
182	0xbdacafa4	-0.08431938
183	0xbd19b638	-0.037527293
184	0xbdd210e4	-0.10257128
185	0x3dd124d0	0.102120996
186	0xbd92df78	-0.071715295
187	0xbd825d72	-0.063654795
188	0xbdbb23fa	-0.09137721
189	0xbda5286c	-0.080643505
190	0xbd9bfd5a	-0.07616682
191	0x3c446440	0.011986792
192	0xbc82ea18	-0.015980765
193	0x3de4e83a	0.11177106
194	0xbac41c00	-0.0014961958
195	0x3dd9d810	0.10636914
196	0xbdf8e562	-0.12153126
197	0xbdce863a	-0.100841954
198	0xbdb35ca4	-0.08757904
199	0x3df95bba	0.121756986
200	0x3df74ada	0.12074824
201	0xbd4a8ef4	-0.049452737
202	0xbd44a2a8	-0.048006684
203	0x3cc75a68	0.024335101
204	0xbd86db24	-0.065847665
205	0xbcc61600	-0.024180412
206	0x3da62d9a	0.081141666
207	0xbde50690	-0.11182892
208	0xbda933da	-0.08261843
209	0x3c48aed0	0.01224871
210	0xbcee0108	-0.029053226
211	0x3d0de7dc	0.034644946
212	0xbdabc52e	-0.083872184
213	0xbd1627d8	-0.03665909
214	0x3d297608	0.04137233
215	0x3db40950	0.08790839
216	0xbceaba30	-0.028653234
217	0xbd97c036	-0.07409708
218	0x3be20e20	0.0068986565
219	0x3d41941c	0.04726039
220	0xbd4bebec	-0.04978554
221	0x3b77a2c0	0.0037786216
222	0x3c509280	0.012730241
223	0x3c7db620	0.0154853165
224	0xbd358ce8	-0.04432383
225	0x3d27bff8	0.04095456
226	0x3bdad4a0	0.006678179
227	0x3d542f24	0.05180277
228	0x3d29d680	0.04146433
229	0x3d39d400	0.045368195
230	0xbcab61c8	-0.02092065
231	0xbdf664d4	-0.1203095
232	0x3dff08ce	0.12452851
233	0xbcc28350	-0.023744255
234	0xbd29e718	-0.041480154
235	0xbd60e6e8	-0.05490771
236	0x3df443c2	0.11926986
237	0xbd539e78	-0.0516648
238	0xbda2e81e	-0.07954429
239	0xbdd5b456	-0.10434787
240	0xbb926a60	-0.0044682473
241	0x3da5726c	0.08078465
242	0xbb825600	-0.003977537
243	0xbd0e041c	-0.034671888
244	0xbd7ebbe0	-0.06219089
245	0xbd750460	-0.059818625
246	0x3c323540	0.010876954
247	0xbdc29a60	-0.09502101
248	0x3d853fce	0.065063104
249	0xbdd8ad98	-0.105799854
250	0x3cc5a918	0.024128482
251	0xbd0ea300	-0.034823418
252	0xbd7c0f7c	-0.061538205
253	0x3db1e748	0.086866915
254	0x3c540970	0.012941703
255	0xbd4c0f3c	-0.049819216

hidden_to_latent.weight f4 [32, 64]
0	0xbdd37c48	-0.10326439
1	0xbc7bb2f0	-0.015362486
2	0x3c2f4300	0.010697126
3	0x3c996200	0.018723488
4	0xbd921b70	-0.071341395
5	0xbdccc6be	-0.099988446
6	0x3dedcc3c	0.1161122
7	0xbcf73120	-0.030174792
8	0xbd070518	-0.032963842
9	0x3dc36eca	0.09542616
10	0xbd8fc8b4	-0.07020703
11	0x3d6dad7c	0.058026776
12	0x3bb990e0	0.0056630224
13	0xbd7bb540	-0.06145215
14	0x3cf2ed68	0.02965422
15	0xbc88c580	-0.016695738
16	0xbd319c4c	-0.043361947
17	0x3d0bf1b0	0.034166038
18	0xbd1451f4	-0.03621097
19	0x3d38af98	0.045089334
20	0x3dd37348	0.103247225
21	0x3c6654f0	0.014058337
22	0xbdfadc1c	-0.12249014
23	0x3d15ecc4	0.03660275
24	0x3dfc6944	0.12324765
25	0xbd889f9c	-0.06671068
26	0xbd3f1fc4	-0.046661153
27	0xbdaa23a0	-0.08307576
28	0x3ce63e10	0.028105766
29	0x3db52954	0.08845773
30	0x3de498fa	0.111619905
31	0xbd1e1b4c	-0.03860025
32	0xbdb48134	-0.08813706
33	0xbdbf0426	-0.09326963
34	0xbd11e2c4	-0.03561665
35	0x3de4b304	0.11166957
36	0x3bf36be0	0.007428631
37	0x3d6d60f0	0.057953775
38	0x3df0b076	0.11752407
39	0x3d56eff0	0.052474916
40	0xbd2dceac	-0.042433426
41	0x3da51ece	0.08062516
42	0x3cbfe2b0	0.023423523
43	0xbd95f4ae	-0.073220596
44	0x3d97fbd8	0.07421082
45	0xbd9aa050	-0.075501084
46	0xbd682910	-0.056679785
47	0xbca44e20	-0.020056784
48	0x3d2a5428	0.041584164
49	0xbceba6a8	-0.028765991
50	0xbd2409c8	-0.04004839
51	0x3d95bade	0.07311033
52	0xbd9ae1f6	-0.0756263
53	0xba316200	-0.00067666173
54	0x3d16a84c	0.036781594
55	0x3cc295d0	0.023753077
56	0x3de7afb0	0.113128066
57	0xbd9c6cc4	-0.07637933
58	0xbd6a8dc4	-0.057264104
59	0x3dd2a80c	0.10285959
60	0x3d90cbb6	0.07070105
61	0x3de77282	0.113011375
62	0x3d8f9176	0.07010166
63	0xbdc9367e	-0.09824847
64	0xbdf70542	-0.1206155
65	0xbd168e48	-0.036756784
66	0xbdc92358	-0.098211944
67	0x3cec3158	0.028832123
68	0xbdf42810	-0.11921704
69	0x3d54b61c	0.051931486
70	0x3da9578e	0.08268653
71	0xbdb7ff8e	-0.0898429
72	0x3d8ce708	0.06880003
73	0x3db977f4	0.09056082
74	0xbdcc899e	-0.09987186
75	0xbd9b6446	-0.07587485
76	0xbd4a3ecc	-0.049376294
77	0x3c3cd6a0	0.01152578
78	0x3d8f5e36	0.07000391
79	0xbde221a8	-0.11041576
80	0xbba5bac0	-0.0050576627
81	0xbd2cbe34	-0.04217358
82	0xbd89b78c	-0.06724462
83	0xbda572ea	-0.08078559
84	0xbddb0e30	-0.106960654
85	0x3d84a0aa	0.06475957
86	0x3ce5ce48	0.028052464
87	0x3d3e33cc	0.046436116
88	0x3d1ac968	0.037789732
89	0xbdeec4d6	-0.11658637
90	0x3b80fce0	0.003936395
91	0xbdd86b58	-0.10567349
92	0x3dc9595e	0.098314986
93	0xbd8a496c	-0.06752285
94	0xbd6c5fcc	-0.057708547
95	0xbd214658	-0.039373726
96	0xbbf0d960	-0.007350132
97	0xbccb1330	-0.024789423
98	0xbdcdc2f0	-0.10046947
99	0xbdad0b10	-0.08449376
100	0xbc412720	-0.011789113
101	0x3d878108	0.06616408
102	0x3dda8396	0.10669629
103	0x3de1058a	0.109873846
104	0xbd1b4c1c	-0.03791438
105	0x3d83a090	0.06427109
106	0xbcb10e80	-0.02161336
107	0x3d83fc0c	0.064445585
108	0xbcc885b8	-0.024477825
109	0xbc398b60	-0.0113247335
110	0xbdd32354	-0.10309473
111	0x3d21357c	0.039357647
112	0x3de2586e	0.11052023
113	0xbd2ab5f0	-0.041677415
114	0x3dea05ce	0.114268884
115	0x3d888c54	0.066673905
116	0xbd0fa67c	-0.03507088
117	0xbbe9c7a0	-0.007134393
118	0x3db4c3d2	0.08826412
119	0xbc6fbea0	-0.014632851
120	0x3df9cc9e	0.12197231
121	0xbd4db5cc	-0.050222203
122	0x3c61c160	0.013779014
123	0x3d81a40a	0.06330116
124	0xbd956db2	-0.07296313
125	0x3c515590	0.012776747
126	0xbd7029c4	-0.05863358
127	0xbd5a4390	-0.05328709
128	0x3d2f3ad0	0.042780697
129	0x3d13d91c	0.036095724
130	0x3dbfb4b0	0.09360635
131	0x3db3da72	0.087818995
132	0x3d6525f0	0.055944383
133	0xbd489fdc	-0.04898058
134	0xb88a5800	-6.596744e-05
135	0xbd93bb2c	-0.072134346
136	0x3cdcd9d8	0.026959345
137	0x3cf05a60	0.02933997
138	0x3d981c66	0.074272916
139	0x3dac0064	0.08398512
140	0x3df37f6e	0.1188954
141	0x3d1b4cc8	0.03791502
142	0x3dd45150	0.10367072
143	0x3df7008c	0.12060651
144	0xbd5adc7c	-0.053432927
145	0x3d06e488	0.032932788
146	0x3d9062fa	0.07050128
147	0xbcc782d0	-0.024354368
148	0xbd2f058c	-0.0427299
149	0x3d8cc60a	0.068737105
150	0x3d0e0c50	0.03467971
151	0x3c844890	0.016147882
152	0xbd270d14	-0.040783957
153	0x3ce9b8c8	0.028530493
154	0x3df9783c	0.12181136
155	0xbb394e40	-0.00282754
156	0xbcafef78	-0.021476492
157	0x3bce8de0	0.006303534
158	0x3d959386	0.073035285
159	0xbdb62778	-0.08894247
160	0x3c797d00	0.015227556
161	0xbd04961c	-0.032369718
162	0xbdaabfe0	-0.083373785
163	0xbd358e2c	-0.04432504
164	0x3daa50ec	0.08316216
165	0xbd7e3114	-0.062058523
166	0xbdc4c0b8	-0.09607071
167	0x3df3873e	0.1189103
168	0x3d88cce8	0.06679708
169	0x3dd2f97a	0.1030149
170	0xbddbbf62	-0.10729863
171	0xbcbd8e48	-0.023139134
172	0xbd9395e0	-0.07206321
173	0x3d359544	0.044331804
174	0x3da24684	0.07923606
175	0xbdd17102	-0.10226633
176	0x3bbb7c80	0.0057216287
177	0x3d74e540	0.059788942
178	0x3c92d7f0	0.017925233
179	0xbda89748	-0.082319796
180	0x3da4b730	0.08042753
181	0x3c6a1310	0.014286771
182	0xbda4b09a	-0.080414966
183	0xbbbf1f20	-0.005832568
184	0xbaf71f00	-0.0018853843
185	0xbc430de0	-0.0119051635
186	0xbddbfb34	-0.107412726
187	0x3d476b4c	0.04868631
188	0xbdb6697c	-0.08906838
189	0x3da44f40	0.08022928
190	0x3d4dbed8	0.05023083
191	0x3c864900	0.016392231
192	0xbda91072	-0.0825509
193	0xbdec810e	-0.11548053
194	0x3dc2d3b8	0.095130384
195	0x3d8c82fa	0.06860919
196	0xbdad7de8	-0.0847128
197	0xbc0c0e80	-0.008548379
198	0xbdf6345a	-0.12021704
199	0xbdcd358e	-0.1001998
200	0xbcdb4a60	-0.026768863
201	0x3ccd3e70	0.025054187
202	0x3df55c26	0.119804665
203	0x3d3fbba4	0.046809807
204	0xbdcdb330	-0.10043943
205	0x3df09bca	0.117484644
206	0xbcef80f8	-0.029236302
207	0xbd961a7e	-0.07329272
208	0x3db1640a	0.08661659
209	0xbdedac6a	-0.11605151
210	0xbc32f8f0	-0.010923609
211	0x3d940ccc	0.07229003
212	0xbd6e8720	-0.058234334
213	0xbdf5ff8c	-0.12011632
214	0xbdebb25c	-0.11508629
215	0x3dbe40fc	0.092897385
216	0xbd139b30	-0.03603667
217	0xbd5ea304	-0.054354683
218	0xbd5e8fa8	-0.05433622
219	0x3dd24608	0.10267264
220	0xbddcc93c	-0.1078057
221	0x3c0482e0	0.008087844
222	0x3b1ebd00	0.002422154
223	0x3ac2d700	0.00148651
224	0x3d4061d0	0.04696828
225	0x3d9c1f32	0.076231375
226	0xbd1119a8	-0.03542486
227	0x3d9ed59e	0.07755588
228	0x3d298898	0.04139003
229	0xba894980	-0.0010474175
230	0xbd4aa434	-0.049473003
231	0x3d133120	0.03593552
232	0xbd92fd1e	-0.071771845
233	0x3df1f482	0.11814214
234	0xbcdffe48	-0.02734293
235	0xbd977b7c	-0.073966
236	0xbdf5c4fc	-0.120004624
237	0x3d92025e	0.07129358
238	0x3c3b6360	0.011437267
239	0xbc7a72b0	-0.015286133
240	0x3d990196	0.074710056
241	0xbcda8f50	-0.026679665
242	0xbdf04e64	-0.11733702
243	0xbcb75f48	-0.0223843
244	0x3d1c5b20	0.03817284
245	0x3da27b3c	0.07933661
246	0xbcd8e898	-0.026478097
247	0x3df37698	0.11887854
248	0xbd32929c	-0.04359685
249	0x3db9979e	0.09062122
250	0xbc015810	-0.007894531
251	0xbc11f990	-0.008909598
252	0xbc3d0ea0	-0.011539131
253	0x3da5ccb0	0.08095682
254	0x3d61baec	0.055109903
255	0x3d8a081a	0.067398265

hidden_to_latent.bias f4 [32]
0	0x3da14222	0.07873942
1	0xbd9ff808	-0.0781098
2	0xbdfe5800	-0.124191284
3	0x3dc98b06	0.0984097
4	0xbc44f830	-0.012022063
5	0xbd7fefd0	-0.062484562
6	0x3d551c9c	0.052029237
7	0x3d82cd92	0.06386866
8	0xbd28a020	-0.041168332
9	0xbdd8745e	-0.1056907
10	0xbdb57b6a	-0.0886143
11	0x3ce76038	0.028244123
12	0xbcd5fff0	-0.026123017
13	0xbd59d4e8	-0.05318156
14	0x3dff91ec	0.12479004
15	0xbd86e2e8	-0.06586248
16	0xbcd363e0	-0.02580446
17	0x3d9a6c16	0.07540147
18	0x3db72fe4	0.08944681
19	0xbdc7752e	-0.09739147
20	0x3d6d99ec	0.05800812
21	0x3dbc1ff6	0.091857836
22	0xbd67b040	-0.05656457
23	0xbcb67030	-0.022270292
24	0xbb2bad40	-0.0026195794
25	0x3dac2236	0.08404963
26	0x3d6a4ff4	0.057205155
27	0x3d6df9dc	0.058099613
28	0x3d09d964	0.033654585
29	0xbdab1026	-0.083526894
30	0x3db7184e	0.089401826
31	0x3da6abe4	0.08138254

latent_to_hidden.weight f4 [3, 32]
0	0xbda8e66b	-0.08247074
1	0x3de9ecb5	0.114221014
2	0xbd9ee3a5	-0.077582635
3	0xbe06e8e2	-0.13174775
4	0xbd3d8bd5	-0.046275932
5	0xbd843a79	-0.06456465
6	0x3db1857d	0.08668039
7	0x3e2544f4	0.16139585
8	0xbdf9916e	-0.12185942
9	0xbda8e0aa	-0.08245976
10	0xbcdffc7b	-0.027342072
11	0x3e23571b	0.15951197
12	0xbd5a4722	-0.053290494
13	0x3da7bd3f	0.08190393
14	0x3e124477	0.1428393
15	0xbda8e2e8	-0.08246404
16	0xbe1872dd	-0.14887567
17	0xbe1c8ceb	-0.15288131
18	0x3e3469b5	0.17618449
19	0x3e1ef1b5	0.15521891
20	0xbe07e362	-0.13270333
21	0xbe128679	-0.1430911
22	0x3dc9a1b6	0.09845297
23	0xbc858897	-0.016300483
24	0xbdcbff29	-0.09960777
25	0x3d894fa3	0.067046426
26	0x3d5791f9	0.052629445
27	0x3d9d5bee	0.0768355
28	0x3dcc6800	0.09980774
29	0xbd560d3d	-0.05225872
30	0x3e21f1fc	0.15814966
31	0xbdcbad7b	-0.09945198
32	0x3e0d58fb	0.13803475
33	0xbde5048b	-0.11182507
34	0xba2ef58f	-0.00066741643
35	0x3e25ee87	0.16204272
36	0x3d063aea	0.03277103
37	0x3de6abc2	0.11263229
38	0x3e1c627b	0.15271942
39	0xbd097092	-0.03355462
40	0xbda528cc	-0.08064422
41	0xbd8f2454	-0.06989351
42	0xbe2e877b	-0.17043869
43	0x3e222b87	0.15836917
44	0x3de6f623	0.112774156
45	0x3e1a8ddf	0.15093182
46	0xbd34cad0	-0.04413873
47	0xbdd8f9fd	-0.105945565
48	0x3d942f95	0.07235638
49	0xbe17a08a	-0.14807335
50	0x3dc9aa13	0.09846892
51	0x3e26ab8d	0.16276379
52	0xbd440b3c	-0.047862276
53	0x3d8dceb5	0.06924192
54	0x3d5bd942	0.05367399
55	0x3e2cf6ac	0.16890973
56	0xbd19c7cb	-0.037544053
57	0xbde8f297	-0.11374395
58	0x3e119eb1	0.14220692
59	0x3e08339a	0.13300934
60	0x3b88a575	0.0041701146
61	0x3dc59c32	0.096489325
62	0x3e244872	0.1604326
63	0xbe00c104	-0.1257363
64	0x3b81d533	0.003962183
65	0x3e149d4d	0.1451313
66	0x3d06d976	0.03292223
67	0x3e0b4de8	0.13603938
68	0x3de09e90	0.109677434
69	0xbdda5f3b	-0.10662695
70	0xbe10f8bb	-0.14157383
71	0xbc5e9e55	-0.013587554
72	0xbce36502	-0.027758125
73	0xbca5bce2	-0.020231668
74	0xbbb3ac3c	-0.0054831784
75	0xbdea87a1	-0.114516504
76	0xbcb031ae	-0.021508064
77	0xbda3f7bc	-0.08006236
78	0xbd204601	-0.03912926
79	0x3cd798b0	0.026317924
80	0xbe272ed7	-0.16326462
81	0xbde86ff4	-0.11349478
82	0x3d04c5c8	0.03241518
83	0xbdba7fe2	-0.09106423
84	0x3d89d720	0.06730485
85	0xbddd4c39	-0.10805554
86	0xbd38c824	-0.045112744
87	0xbe083afa	-0.13303748
88	0x3d2b9902	0.041893966
89	0xbd33706b	-0.043808382
90	0x3e33057b	0.1748256
91	0xbc73147d	-0.014836428
92	0x3ddefc4c	0.108879656
93	0x3d5aa2af	0.053377803
94	0x3dbba88f	0.091630094
95	0xbd90eb4c	-0.07076129

latent_to_hidden.bias f4 [3]
0	0x3e2905a4	0.16506058
1	0x3e01212b	0.12610309
2	0xbe203ed6	-0.1564897

decoder_rnn.weight_ih_l0 f4 [12, 64]
0	0x3edf7159	0.43641165
1	0xbef580c5	-0.47949806
2	0xbd8a1fc8	-0.06744343
3	0x3eea0486	0.45706576
4	0xbe6a42c7	-0.22877036
5	0xbe2f93a8	-0.1714617
6	0xbeab72c1	-0.33485988
7	0x3d6c56ea	0.057700075
8	0x3d3c8e98	0.046034425
9	0x3ef04036	0.4692399
10	0x3d16b19b	0.03679047
11	0xbe8fd983	-0.28095636
12	0x3ecd9207	0.40150473
13	0x3e9f24c6	0.31082743
14	0x3ec3b8aa	0.38226825
15	0x3ea25778	0.31707358
16	0xbdc1bf0b	-0.09460267
17	0xbf032953	-0.5123493
18	0xbdb0362e	-0.08604084
19	0xbe861637	-0.26188824
20	0x3e2c412a	0.16821733
21	0x3ebf5c17	0.37374946
22	0x3f00f8a3	0.5037939
23	0xbef5e470	-0.48025846
24	0xbc803bfe	-0.015653607
25	0xbe8e9d36	-0.27854317
26	0xbe9acf02	-0.3023606
27	0xbee63bfc	-0.4496764
28	0x3e8356ae	0.2565207
29	0xbdf997b7	-0.121871404
30	0x3eb722cc	0.35768735
31	0xbe017e23	-0.12645774
32	0x3e860734	0.2617737
33	0xbf078f59	-0.52953106
34	0x3eb0f968	0.34565282
35	0xbe61aac4	-0.22037798
36	0x3e9d3d80	0.30710983
37	0xbeb15555	-0.34635416
38	0xbe2e6b55	-0.17033131
39	0x3efd63af	0.49490115
40	0x3dcde45d	0.100533225
41	0xbe7bdc62	-0.24595788
42	0xbe15b831	-0.14621045
43	0xbe2cfa3e	-0.16892335
44	0x3e41e4ee	0.18934986
45	0xbe2b9ef3	-0.16759853
46	0xbeb6a22f	-0.3567061
47	0x3ec17622	0.3778544
48	0xbe793ca3	-0.24339537
49	0x3e6fff6e	0.23437282
50	0x3ef1b228	0.47206235
51	0xbeb69f66	-0.35668486
52	0x3e670304	0.22559744
53	0xbee1d619	-0.44108656
54	0x3ed86a81	0.42268756
55	0x3db9a079	0.09063811
56	0x3e5dc6b2	0.21657827
57	0x3ea49e50	0.32152033
58	0xbf0fbf07	-0.5615086
59	0x3ec07640	0.37590218
60	0xb8bdf2c0	-9.057438e-05
61	0x3eae0135	0.33985296
62	0x3d3c54b7	0.045979228
63	0x3ed7a64e	0.42119068
64	0xbe02aff8	-0.12762439
65	0xbe789292	-0.24274662
66	0x3e9e61bd	0.30933943
67	0xbf07c0f5	-0.53028804
68	0x3eeda7ca	0.46417075
69	0xbdf5e33c	-0.12006232
70	0x3ea5fdf4	0.32420313
71	0xbeb5986f	-0.3546786
72	0xbee090d0	-0.43860483
73	0xbe1ece7f	-0.1550846
74	0xbe8fb34a	-0.28066474
75	0x3e5e170e	0.21688482
76	0xbedb6356	-0.42849225
77	0xbe9e158c	-0.30875814
78	0xbe106875	-0.14102347
79	0x3e9ce0f6	0.30640382
80	0x3ef57811	0.47943166
81	0xbea0dd87	-0.31419012
82	0xbee425f1	-0.44560197
83	0xbe9b2c1e	-0.30307096
84	0x3e88df2c	0.26732767
85	0x3d80d0f3	0.06289854
86	0x3d9a9a4c	0.07548961
87	0x3ee3ae2b	0.44468817
88	0x3e86f6bb	0.26360115
89	0x3ca3ad7c	0.019980185
90	0x3ea106e1	0.3145056
91	0x3f02fabe	0.5116385
92	0xbe9e66af	-0.30937716
93	0x3dc6eb60	0.09712863
94	0x3d0f6ec1	0.035017733
95	0xbefeab04	-0.4973985
96	0x3e7a4ad2	0.24442604
97	0xbc8a3db2	-0.016875122
98	0xbea520f7	-0.32251713
99	0xbeb12e81	-0.34605792
100	0x3d084f7c	0.033278927
101	0x3f06e9ab	0.527003
102	0x3e76cfc9	0.24102701
103	0x3f0bd148	0.5461621
104	0x3dc9a7aa	0.098464325
105	0x3f0b3c03	0.54388446
106	0x3cbdf40c	0.02318766
107	0x3d346aa6	0.04404702
108	0x3f0323be	0.51226413
109	0x3ecf495d	0.4048566
110	0x3e3d90ac	0.18512219
111	0x3e0401f8	0.12891376
112	0xbeb5a4fd	-0.3547744
113	0x3ea802c6	0.32814616
114	0xbe0bfe63	-0.1367126
115	0x3eaaa2fd	0.33327475
116	0xbe57df1a	-0.210812
117	0xbdeddcb3	-0.11614361
118	0xbed746ce	-0.42046207
119	0xbf0dcebc	-0.55393577
120	0x3ede3d93	0.43406352
121	0xbd652c87	-0.055950668
122	0x3ed08bd0	0.40731668
123	0x3f13be63	0.5771238
124	0x3cd8c9a6	0.026463341
125	0xbe26a3e3	-0.16273455
126	0x3e4ebaf9	0.20188512
127	0x3c9f3e45	0.019438872
128	0x3e59d04a	0.21270862
129	0x3f0c6490	0.54840946
130	0x3f117e54	0.56833386
131	0xbd8d0e0c	-0.06887445
132	0xbec85c08	-0.39132714
133	0x3ecf646d	0.40506306
134	0x3e6870c4	0.22699267
135	0xbe6d53d0	-0.23176503
136	0xbeb8e7a4	-0.36114228
137	0x3ed706a1	0.41997245
138	0x3edde881	0.4334145
139	0xbf0b8467	-0.54498905
140	0x3dd3d5d3	0.10343518
141	0x3ee110c9	0.4395812
142	0xbe9f0b3f	-0.31063268
143	0x3dc43abe	0.09581517
144	0x3c97a16c	0.01850959
145	0x3f03d973	0.51503676
146	0x3e616b7a	0.22013655
147	0x3d8c3509	0.06846053
148	0xbf132601	-0.57479864
149	0xbebba929	-0.36652496
150	0x3e1883ff	0.14894103
151	0xbe6511aa	-0.2237002
152	0x3d920af7	0.07130998
153	0x3e35050e	0.1767771
154	0x3e50bc4b	0.20384328
155	0x3edd8628	0.43266416
156	0x3ed6ef4b	0.4197944
157	0x3e4e58f8	0.20151126
158	0x3e95f608	0.2928927
159	0xbe27a7c0	-0.16372585
160	0xbe4910d5	-0.19635327
161	0x3efec039	0.4975603
162	0x3e348a55	0.17630894
163	0x3ac85040	0.0015282705
164	0xbeb917ce	-0.36150974
165	0x3ec5512d	0.38538495
166	0x3e8edf31	0.27904657
167	0xbef75d8e	-0.48313564
168	0x3edd782a	0.4325574
169	0x3db9a222	0.090641275
170	0x3e386390	0.1800673
171	0xbc50a4b1	-0.012734578
172	0x3ebb187b	0.36542115
173	0xbeec7fba	-0.46191198
174	0x3eba52f5	0.36391416
175	0x3f0e9de8	0.55709696
176	0xbe175d1d	-0.14781614
177	0x3ef47aff	0.4775009
178	0x3ef0b270	0.47011137
179	0x3ed7d168	0.42151952
180	0xbbabf6f5	-0.0052479454
181	0x3e82d797	0.25555107
182	0xbe51b415	-0.20478852
183	0x3eceed52	0.40415436
184	0xbe3e9169	-0.18610157
185	0x3ec7d3d9	0.39028814
186	0x3e7ef1e9	0.24896969
187	0xbeddc66a	-0.4331544
188	0xbde74e7c	-0.112942666
189	0x3eb57fe3	0.35449132
190	0x3f10563e	0.56381595
191	0x3f0a5bc8	0.540463
192	0x3e3584e7	0.1772648
193	0xbde11c78	-0.10991758
194	0xbeaab54f	-0.33341452
195	0xbece5b6c	-0.40304124
196	0x3de8b0d6	0.11361854
197	0x3ed97333	0.42470703
198	0x3e43fdbd	0.19139762
199	0xbe629a75	-0.22129233
200	0x3e8773c6	0.26455516
201	0x3dcfa177	0.10138219
202	0xbf0aa5a7	-0.54159015
203	0xbeddd91d	-0.43329707
204	0xbe5e28ef	-0.21695302
205	0x3ee42248	0.44557405
206	0x3e1c3494	0.15254432
207	0x3eceb5f3	0.4037319
208	0xbeb0d02c	-0.34533823
209	0xbea9ee24	-0.331895
210	0x3f01bd44	0.5067942
211	0x3f0cdf7d	0.55028516
212	0x3ed38ed4	0.41319907
213	0xbdf55da7	-0.119807534
214	0xbebf8410	-0.37405443
215	0x3f0ea77e	0.5572432
216	0x3e39d54d	0.18147774
217	0xbeaea3a4	-0.34109223
218	0x3d211858	0.039329857
219	0xbe12f322	-0.1435056
220	0xbe899541	-0.26871684
221	0x3eefb6d7	0.46819183
222	0x3e73c3bc	0.23805135
223	0xbe3379ce	-0.17526934
224	0x3efc13f4	0.49233973
225	0x3e1b95ae	0.15193817
226	0x3edc0b31	0.42977288
227	0xbeab1526	-0.33414572
228	0xbdfe47eb	-0.12416061
229	0x3eebea7e	0.4607734
230	0x3e6fef4d	0.2343113
231	0x3eb29cdc	0.348853
232	0x3edfe23a	0.43727285
233	0xbeb72533	-0.35770568
234	0xbec8c4bb	-0.39212593
235	0xbeb0fd32	-0.34568173
236	0xbe8e44a0	-0.27786732
237	0x3f0ac020	0.5419941
238	0xba84ba38	-0.0010126298
239	0xbeca9288	-0.3956492
240	0xbdabdafe	-0.08391379
241	0xbf0c9c74	-0.5492623
242	0x3ecd1572	0.40055424
243	0xbcef5da6	-0.02921946
244	0x3def00bb	0.11670061
245	0x3d8b5aa7	0.068044
246	0xbea004f8	-0.3125379
247	0xbeca2b4f	-0.39486167
248	0x3e152a05	0.1456681
249	0x3ed91484	0.42398465
250	0x3e69f509	0.2284738
251	0xbedc4c75	-0.43027082
252	0x3ec961ac	0.3933233
253	0x3e18ec28	0.14933836
254	0xbd84059d	-0.06446383
255	0xbe77db9b	-0.24204867

decoder_rnn.weight_hh_l0 f4 [12, 3]
0	0xbf12ae42	-0.57297146
1	0x3ea8a64e	0.3293938
2	0xbe13e5db	-0.14443152
3	0x3f112bb7	0.5670733
4	0x3f1024c3	0.56306094
5	0xbec38e24	-0.38194382
6	0xbf05529f	-0.52079195
7	0x3e0100ab	0.12597911
8	0xbeb383e6	-0.35061568
9	0x3e8fedf4	0.2811123
10	0xbc95be9d	-0.018279368
11	0x3e891bb1	0.2677894
12	0x3ea7cd27	0.32773706
13	0xbd14aa7f	-0.03629541
14	0xbe81d442	-0.25357252
15	0xbd85caf1	-0.065328486
16	0xbeb0ee34	-0.34556735
17	0xbddb9d52	-0.10723366
18	0x3f06ef93	0.5270931
19	0x3ee1e1a2	0.44117457
20	0x3eb00e4f	0.34385917
21	0x3e608898	0.21927106
22	0xbf0a1695	-0.5394071
23	0x3d85934d	0.06522236
24	0xbf0d77b8	-0.552608
25	0xbf10a398	-0.56499624
26	0xbf02206d	-0.5083073
27	0x3c4275bd	0.011868891
28	0x3d136921	0.03598893
29	0xbe057510	-0.13032937
30	0x3eca987c	0.3956946
31	0x3d0ed721	0.03487313
32	0xbe9b11ed	-0.30287114
33	0x3e4c4106	0.1994668
34	0xbe08e7a2	-0.13369611
35	0x3e0f8aeb	0.14017837

decoder_rnn.bias_ih_l0 f4 [12]
0	0x3dfbd833	0.12297096
1	0x3ed366af	0.4128928
2	0x3ddf98ec	0.109178394
3	0x3e14242c	0.14466923
4	0x3ec655da	0.38737375
5	0x3ef5a187	0.47974798
6	0xbf06271f	-0.52403444
7	0xbe94a5b7	-0.2903268
8	0x3f026856	0.50940454
9	0x3e21dd9a	0.1580719
10	0x3ed5cd0f	0.4175801
11	0x3eb0e47a	0.34549314

decoder_rnn.bias_hh_l0 f4 [12]
0	0x3ef46494	0.47732985
1	0xbed4c13d	-0.4155368
2	0x3e3ce4f7	0.18446718
3	0xbbc4ce78	-0.0060060583
4	0x3e5e7bdb	0.21726935
5	0xbe2175ae	-0.15767547
6	0x3e19db4e	0.15025064
7	0xbea84198	-0.32862544
8	0x3cbe23d3	0.023210442
9	0x3e72600c	0.23669451
10	0x3ea13163	0.31482992
11	0xbf0321d3	-0.51223487
